…
cutionInfo":{"status":"ok","timestamp":1669178146888,"user_tz":-330,"elapsed":4938,"user":{"displayName":"shriniket dixit","userId":"13936259288715797272"}},"colab":{"base_uri":"https://localhost:8080/"},"outputId":"faac74f6-ce58-47ae-e752-8a8caba44047"},"execution_count":1,"outputs":[{"output_type":"stream","name":"stdout","text":["Model: \"sequential\"\n","_________________________________________________________________\n"," Layer (type)                Output Shape              Param #   \n","=================================================================\n"," conv2d (Conv2D)             (None, 148, 148, 64)      1792      \n","                                                                 \n"," max_pooling2d (MaxPooling2D  (None, 74, 74, 64)       0         \n"," )                                                               \n","                                                                 \n"," conv2d_1 (Conv2D)           (None, 72, 72, 64)        36928     \n","                                                                 \n"," max_pooling2d_1 (MaxPooling  (None, 36, 36, 64)       0         \n"," 2D)                                                             \n","                                                                 \n"," conv2d_2 (Conv2D)           (None, 34, 34, 128)       73856     \n","                                                                 \n"," max_pooling2d_2 (MaxPooling  (None, 17, 17, 128)      0         \n"," 2D)                                                             \n","                                                                 \n"," conv2d_3 (Conv2D)           (None, 15, 15, 128)       147584    \n","                                                                 \n"," max_pooling2d_3 (MaxPooling  (None, 7, 7, 128)        0         \n"," 2D)                                                             \n","                                                                 \n"," flatten (Flatten)           (None, 6272)              0         \n","                                                                 \n"," dropout (Dropout)           (None, 6272)              0         \n","                                                                 \n"," dense (Dense)               (None, 512)               3211776   \n","                                                                 \n"," dense_1 (Dense)             (None, 4)                 2052      \n","                                                                 \n","=================================================================\n","Total params: 3,473,988\n","Trainable params: 3,473,988\n","Non-trainable params: 0\n","_________________________________________________________________\n"]}]},{"cell_type":"code","source":["model.compile(loss = 'categorical_crossentropy', optimize
…
